…
greedy_output.txt', padding_idx=0, patient=5, pretrained='', pretrained_sememe_emb_path='data/processed/sememe_matrix.npy', pretrained_word_emb_path='data/processed/word_matrix.npy', relu_dropout=0.2, seed=1024, sememe2idx_path='./data/processed/sememe2idx.json', temperature=1.0, test_epoch=20, test_path='data/processed/test.npz', test_size=50, train_path='./data/processed/train.npz', unk=3, valid_path='./data/processed/valid.npz', vocab_size=43648, warmup_epochs=10, warmup_lr=1e-07, word2idx_path='./data/processed/word2idx.json')
Encoder2Decoder(
  (encoder): TransformerEncoder(
    (word_emb): Embedding(43648, 300, padding_idx=0)
    (sememe_emb): Embedding(18030, 300, padding_idx=0)
    (embed_positions): LearnedPositionalEmbedding(21, 300, padding_idx=0)
    (layers): ModuleList(
      (0): TransformerEncoderLayer(
        (self_attn): MultiheadAttention(
          (out_proj): Linear(in_features=300, out_features=300, bias=True)
        )
        (fc1): Linear(in_features=300, out_features=512, bias=True)
        (fc2): Linear(in_features=512, out_features=300, bias=True)
        (layer_norms): ModuleList(
          (0): LayerNorm(torch.Size([300]), eps=1e-05, elementwise_affine=True)
          (1): LayerNorm(torch.Size([300]), eps=1e-05, elementwise_affine=True)
        )
      )
      (1): TransformerEncoderLayer(
        (self_attn): MultiheadAttention(
          (out_proj): Linear(in_features=300, out_features=300, bias=True)
        )
        (fc1): Linear(in_features=300, out_features=512, bias=True)
        (fc2): Linear(in_features=512, out_features=300, bias=True)
        (layer_norms): ModuleList(
          (0): LayerNorm(torch.Size([300]), eps=1e-05, elementwise_affine=True)
          (1): LayerNorm(torch.Size([300]), eps=1e-05, elementwise_affine=True)
        )
      )
      (2): TransformerEncoderLayer(
        (self_attn): MultiheadAttention(
          (out_proj): Linear(in_features=300, out_features=300, bias=True)
        )
        (fc1): Linear(in_features=300, out_features=512, bias=True)
        (fc2): Linear(in_features=512, out_features=300, bias=True)
        (layer_norms): ModuleList(
          (0): LayerNorm(torch.Size([300]), eps=1e-05, elementwise_affine=True)
          (1): LayerNorm(torch.Size([300]), eps=1e-05, elementwise_affine=True)
        )
      )
      (3): TransformerEncoderLayer(
        (self_attn): MultiheadAttention(
          (out_proj): Linear(in_features=300, out_features=300, bias=True)
        )
        (fc1): Linear(in_features=300, out_features=512, bias=True)
        (fc2): Linear(in_features=512, out_features=300, bias=True)
        (layer_norms): ModuleList(
          (0): LayerNorm(torch.Size([300]), eps=1e-05, elementwise_affine=True)
          (1): LayerNorm(torch.Size([300]), eps=1e-05, elementwise_affine=True)
        )
      )
      (4): TransformerEncoderLayer(
        (self_attn): MultiheadAttention(
          (out_proj): Linear(in_features=300, out_features=300, bias=True)
        )
        (fc1): Linear(in_features=300, out_features=512, bias=True)
        (fc2): Linear(in_features=512, out_features=300, bias=True)
        (layer_norms): ModuleList(
          (0): LayerNorm(torch.Size([300]), eps=1e-05, elementwise_affine=True)
          (1): LayerNorm(torch.Size([300]), eps=1e-05, elementwise_affine=True)
        )
      )
      (5): TransformerEncoderLayer(
        (self_attn): MultiheadAttention(
          (out_proj): Linear(in_features=300, out_features=300, bias=True)
        )
        (fc1): Linear(in_features=300, out_features=512, bias=True)
        (fc2): Linear(in_features=512, out_features=300, bias=True)
        (layer_norms): ModuleList(
          (0): LayerNorm(torch.Size([300]), eps=1e-05, elementwise_affine=True)
          (1): LayerNorm(torch.Size([300]), eps=1e-05, elementwise_affine=True)
        )
      )
    )
  )
  (decoder): AdaptiveDecoder(
    (embed): Embedding(43648, 300, padding_idx=0)
    (LSTM): LSTM(300, 300, batch_first=True)
    (adaptive): AdaptiveBlock(
      (sentinel): Sentinel(
        (affine_x): Linear(in_features=300, out_features=300, bias=True)
        (affine_h): Linear(in_features=300, out_features=300, bias=True)
        (dropout): Dropout(p=0.2)
      )
      (atten): Atten(
        (affine_v): Linear(in_features=300, out_features=100, bias=True)
        (affine_g): Linear(in_features=300, out_features=100, bias=True)
        (affine_s): Linear(in_features=300, out_features=100, bias=True)
        (affine_h): Linear(in_features=100, out_features=1, bias=True)
        (dropout): Dropout(p=0.2)
      )
      (mlp): Linear(in_features=300, out_features=43648, bias=True)
      (dropout): Dropout(p=0.2)
    )
  )
)
--------------------Training for Epoch 1--------------------
Epoch [1/100], Step [10/734], CrossEntropyLoss: 10.6802, Perplexity: 43486.9354
Epoch [1/100], Step [20/734], CrossEntropyLoss: 10.6773, Perplexity: 43358.6849
Epoch [1/100], Step [30/734], CrossEntropyLoss: 10.6760, Perplexity: 43305.5413
Epoch [1/100], Step [40/734], CrossEntropyLoss: 10.6740, Perplexity: 43218.3224
…
